…
lstm_units 75
epochs 10
batch_size 128
xmaxlen 12
ymaxlen 12
no_padding False
regularization factor 0.005
dropout 0.1
LR 0.001
Decay 0.2
Optimiser adam
Embedding Size 200
Tokenize Simple False
Vocab Size :  539
Building model
Premise Length :  12
Total Length   :  25
____________________________________________________________________________________________________
Layer (type)                     Output Shape          Param #     Connected to                     
====================================================================================================
Input Layer (InputLayer)         (None, 25)            0                                            
____________________________________________________________________________________________________
Embedding Layer (Embedding)      (None, 25, 200)       107800      Input Layer[0][0]                
____________________________________________________________________________________________________
Dropout Embeddings (Dropout)     (None, 25, 200)       0           Embedding Layer[0][0]            
____________________________________________________________________________________________________
bidirectional_1 (Bidirectional)  (None, 25, 150)       165600      Dropout Embeddings[0][0]         
____________________________________________________________________________________________________
Dropout LSTM Layer (Dropout)     (None, 25, 150)       0           bidirectional_1[0][0]            
____________________________________________________________________________________________________
h_n (Lambda)                     (None, 150)           0           Dropout LSTM Layer[0][0]         
____________________________________________________________________________________________________
Y (Lambda)                       (None, 12, 150)       0           Dropout LSTM Layer[0][0]         
____________________________________________________________________________________________________
dense_2 (Dense)                  (None, 150)           22650       h_n[0][0]                        
____________________________________________________________________________________________________
timedistributed_1 (TimeDistribut (None, 12, 150)       22650       Y[0][0]                          
____________________________________________________________________________________________________
repeatvector_1 (RepeatVector)    (None, 12, 150)       0           dense_2[0][0]                    
____________________________________________________________________________________________________
merge_1 (Merge)                  (None, 12, 150)       0           repeatvector_1[0][0]             
                                                                   timedistributed_1[0][0]          
____________________________________________________________________________________________________
activation_1 (Activation)        (None, 12, 150)       0           merge_1[0][0]                    
____________________________________________________________________________________________________
alpha (TimeDistributed)          (None, 12, 1)         151         activation_1[0][0]               
____________________________________________________________________________________________________
flatten_1 (Flatten)              (None, 12)            0           alpha[0][0]                      
____________________________________________________________________________________________________
activation_2 (Activation)        (None, 12)            0           flatten_1[0][0]                  
____________________________________________________________________________________________________
reshape_1 (Reshape)              (None, 12, 1)         0           activation_2[0][0]               
____________________________________________________________________________________________________
merge_2 (Merge)                  (None, 12, 151)       0           timedistributed_1[0][0]          
                                                                   reshape_1[0][0]                  
____________________________________________________________________________________________________
r (Lambda)                       (None, 150)           0           merge_2[0][0]                    
____________________________________________________________________________________________________
dense_4 (Dense)                  (None, 150)           22650       r[0][0]                          
____________________________________________________________________________________________________
dense_5 (Dense)                  (None, 150)           22650       h_n[0][0]                        
____________________________________________________________________________________________________
merge_3 (Merge)                  (None, 150)           0           dense_4[0][0]                    
                                                                   dense_5[0][0]                    
____________________________________________________________________________________________________
activation_3 (Activation)        (None, 150)           0           merge_3[0][0]                    
____________________________________________________________________________________________________
Output Layer (Dense)             (None, 1)             151         activation_3[0][0]               
====================================================================================================
Total params: 364,302
Trainable params: 364,302
Non-trainable params: 0
____________________________________________________________________________________________________
Model Compiled
Epoch 1/10
197760/197866 [============================>.] - ETA: 0s - loss: 0.6015 - precision: 0.6489 - recall: 0.3953 - fmeasure: 0.4723  
…
