…
/usr/local/lib/python2.7/site-packages/keras/engine/topology.py:368: UserWarning: The `regularizers` property of layers/models is deprecated. Regularization losses are now managed via the `losses` layer/model property.
  warnings.warn('The `regularizers` property of '
____________________________________________________________________________________________________
Layer (type)                     Output Shape          Param #     Connected to                     
====================================================================================================
Input Layer (InputLayer)         (None, 21)            0                                            
____________________________________________________________________________________________________
Embedding Layer (Embedding)      (None, 21, 200)       32400       Input Layer[0][0]                
____________________________________________________________________________________________________
Dropout Embeddings (Dropout)     (None, 21, 200)       0           Embedding Layer[0][0]            
____________________________________________________________________________________________________
bidirectional_1 (Bidirectional)  (None, 21, 150)       165600      Dropout Embeddings[0][0]         
____________________________________________________________________________________________________
Dropout LSTM Layer (Dropout)     (None, 21, 150)       0           bidirectional_1[0][0]            
____________________________________________________________________________________________________
h_hypo (Lambda)                  (None, 11, 150)       0           Dropout LSTM Layer[0][0]         
____________________________________________________________________________________________________
timedistributed_2 (TimeDistribut (None, 11, 150)       22650       h_hypo[0][0]                     
____________________________________________________________________________________________________
Y (Lambda)                       (None, 10, 150)       0           Dropout LSTM Layer[0][0]         
____________________________________________________________________________________________________
lambda_1 (Lambda)                (None, 150)           0           timedistributed_2[0][0]          
____________________________________________________________________________________________________
timedistributed_1 (TimeDistribut (None, 10, 150)       22650       Y[0][0]                          
____________________________________________________________________________________________________
repeatvector_1 (RepeatVector)    (None, 10, 150)       0           lambda_1[0][0]                   
____________________________________________________________________________________________________
merge_1 (Merge)                  (None, 10, 150)       0           repeatvector_1[0][0]             
                                                                   timedistributed_1[0][0]          
____________________________________________________________________________________________________
activation_1 (Activation)        (None, 10, 150)       0           merge_1[0][0]                    
____________________________________________________________________________________________________
alpha1 (TimeDistributed)         (None, 10, 1)         151         activation_1[0][0]               
____________________________________________________________________________________________________
flatten_1 (Flatten)              (None, 10)            0           alpha1[0][0]                     
____________________________________________________________________________________________________
activation_2 (Activation)        (None, 10)            0           flatten_1[0][0]                  
____________________________________________________________________________________________________
reshape_1 (Reshape)              (None, 10, 1)         0           activation_2[0][0]               
____________________________________________________________________________________________________
merge_2 (Merge)                  (None, 10, 151)       0           timedistributed_1[0][0]          
                                                                   reshape_1[0][0]                  
____________________________________________________________________________________________________
r1 (Lambda)                      (None, 150)           0           merge_2[0][0]                    
____________________________________________________________________________________________________
lambda_2 (Lambda)                (None, 150)           0           timedistributed_2[0][0]          
____________________________________________________________________________________________________
Wr1 (Dense)                      (None, 150)           22650       r1[0][0]                         
____________________________________________________________________________________________________
repeatvector_2 (RepeatVector)    (None, 10, 150)       0           lambda_2[0][0]                   
____________________________________________________________________________________________________
repeatvector_3 (RepeatVector)    (None, 10, 150)       0           Wr1[0][0]                        
____________________________________________________________________________________________________
merge_3 (Merge)                  (None, 10, 150)       0           repeatvector_2[0][0]             
                                                                   timedistributed_1[0][0]          
                                                                   repeatvector_3[0][0]             
____________________________________________________________________________________________________
activation_3 (Activation)        (None, 10, 150)       0           merge_3[0][0]                    
____________________________________________________________________________________________________
alpha2 (TimeDistributed)         (None, 10, 1)         151         activation_3[0][0]               
____________________________________________________________________________________________________
flatten_2 (Flatten)              (None, 10)            0           alpha2[0][0]                     
____________________________________________________________________________________________________
activation_4 (Activation)        (None, 10)            0           flatten_2[0][0]                  
____________________________________________________________________________________________________
reshape_2 (Reshape)              (None, 10, 1)         0           activation_4[0][0]               
____________________________________________________________________________________________________
merge_4 (Merge)                  (None, 10, 151)       0           timedistributed_1[0][0]          
                                                                   reshape_2[0][0]                  
____________________________________________________________________________________________________
r2 (Lambda)                      (None, 150)           0           merge_4[0][0]                    
____________________________________________________________________________________________________
Tan_Wr1 (Dense)                  (None, 150)           22650       r1[0][0]                         
____________________________________________________________________________________________________
merge_5 (Merge)                  (None, 150)           0           r2[0][0]                         
                                                                   Tan_Wr1[0][0]                    
____________________________________________________________________________________________________
lambda_3 (Lambda)                (None, 150)           0           timedistributed_2[0][0]          
____________________________________________________________________________________________________
Wr2 (Dense)                      (None, 150)           22650       merge_5[0][0]                    
____________________________________________________________________________________________________
repeatvector_4 (RepeatVector)    (None, 10, 150)       0           lambda_3[0][0]                   
____________________________________________________________________________________________________
repeatvector_5 (RepeatVector)    (None, 10, 150)       0           Wr2[0][0]                        
____________________________________________________________________________________________________
merge_6 (Merge)                  (None, 10, 150)       0           repeatvector_4[0][0]             
                                                                   timedistributed_1[0][0]          
                                                                   repeatvector_5[0][0]             
____________________________________________________________________________________________________
activation_5 (Activation)        (None, 10, 150)       0           merge_6[0][0]                    
____________________________________________________________________________________________________
alpha3 (TimeDistributed)         (None, 10, 1)         151         activation_5[0][0]               
____________________________________________________________________________________________________
flatten_3 (Flatten)              (None, 10)            0           alpha3[0][0]                     
____________________________________________________________________________________________________
activation_6 (Activation)        (None, 10)            0           flatten_3[0][0]                  
____________________________________________________________________________________________________
reshape_3 (Reshape)              (None, 10, 1)         0           activation_6[0][0]               
____________________________________________________________________________________________________
merge_7 (Merge)                  (None, 10, 151)       0           timedistributed_1[0][0]          
                                                                   reshape_3[0][0]                  
____________________________________________________________________________________________________
r3 (Lambda)                      (None, 150)           0           merge_7[0][0]                    
____________________________________________________________________________________________________
Tan_Wr2 (Dense)                  (None, 150)           22650       merge_5[0][0]                    
____________________________________________________________________________________________________
merge_8 (Merge)                  (None, 150)           0           r3[0][0]                         
                                                                   Tan_Wr2[0][0]                    
____________________________________________________________________________________________________
lambda_4 (Lambda)                (None, 150)           0           timedistributed_2[0][0]          
____________________________________________________________________________________________________
Wr3 (Dense)                      (None, 150)           22650       merge_8[0][0]                    
____________________________________________________________________________________________________
repeatvector_6 (RepeatVector)    (None, 10, 150)       0           lambda_4[0][0]                   
____________________________________________________________________________________________________
repeatvector_7 (RepeatVector)    (None, 10, 150)       0           Wr3[0][0]                        
____________________________________________________________________________________________________
merge_9 (Merge)                  (None, 10, 150)       0           repeatvector_6[0][0]             
                                                                   timedistributed_1[0][0]          
                                                                   repeatvector_7[0][0]             
____________________________________________________________________________________________________
activation_7 (Activation)        (None, 10, 150)       0           merge_9[0][0]                    
____________________________________________________________________________________________________
alpha4 (TimeDistributed)         (None, 10, 1)         151         activation_7[0][0]               
____________________________________________________________________________________________________
flatten_4 (Flatten)              (None, 10)            0           alpha4[0][0]                     
____________________________________________________________________________________________________
activation_8 (Activation)        (None, 10)            0           flatten_4[0][0]                  
____________________________________________________________________________________________________
reshape_4 (Reshape)              (None, 10, 1)         0           activation_8[0][0]               
____________________________________________________________________________________________________
merge_10 (Merge)                 (None, 10, 151)       0           timedistributed_1[0][0]          
                                                                   reshape_4[0][0]                  
____________________________________________________________________________________________________
r4 (Lambda)                      (None, 150)           0           merge_10[0][0]                   
____________________________________________________________________________________________________
Tan_Wr3 (Dense)                  (None, 150)           22650       merge_8[0][0]                    
____________________________________________________________________________________________________
merge_11 (Merge)                 (None, 150)           0           r4[0][0]                         
                                                                   Tan_Wr3[0][0]                    
____________________________________________________________________________________________________
lambda_5 (Lambda)                (None, 150)           0           timedistributed_2[0][0]          
____________________________________________________________________________________________________
Wr4 (Dense)                      (None, 150)           22650       merge_11[0][0]                   
____________________________________________________________________________________________________
repeatvector_8 (RepeatVector)    (None, 10, 150)       0           lambda_5[0][0]                   
____________________________________________________________________________________________________
repeatvector_9 (RepeatVector)    (None, 10, 150)       0           Wr4[0][0]                        
____________________________________________________________________________________________________
merge_12 (Merge)                 (None, 10, 150)       0           repeatvector_8[0][0]             
                                                                   timedistributed_1[0][0]          
                                                                   repeatvector_9[0][0]             
____________________________________________________________________________________________________
activation_9 (Activation)        (None, 10, 150)       0           merge_12[0][0]                   
____________________________________________________________________________________________________
alpha5 (TimeDistributed)         (None, 10, 1)         151         activation_9[0][0]               
____________________________________________________________________________________________________
flatten_5 (Flatten)              (None, 10)            0           alpha5[0][0]                     
____________________________________________________________________________________________________
activation_10 (Activation)       (None, 10)            0           flatten_5[0][0]                  
____________________________________________________________________________________________________
reshape_5 (Reshape)              (None, 10, 1)         0           activation_10[0][0]              
____________________________________________________________________________________________________
merge_13 (Merge)                 (None, 10, 151)       0           timedistributed_1[0][0]          
                                                                   reshape_5[0][0]                  
____________________________________________________________________________________________________
r5 (Lambda)                      (None, 150)           0           merge_13[0][0]                   
____________________________________________________________________________________________________
Tan_Wr4 (Dense)                  (None, 150)           22650       merge_11[0][0]                   
____________________________________________________________________________________________________
merge_14 (Merge)                 (None, 150)           0           r5[0][0]                         
                                                                   Tan_Wr4[0][0]                    
____________________________________________________________________________________________________
lambda_6 (Lambda)                (None, 150)           0           timedistributed_2[0][0]          
____________________________________________________________________________________________________
Wr5 (Dense)                      (None, 150)           22650       merge_14[0][0]                   
____________________________________________________________________________________________________
repeatvector_10 (RepeatVector)   (None, 10, 150)       0           lambda_6[0][0]                   
____________________________________________________________________________________________________
repeatvector_11 (RepeatVector)   (None, 10, 150)       0           Wr5[0][0]                        
____________________________________________________________________________________________________
merge_15 (Merge)                 (None, 10, 150)       0           repeatvector_10[0][0]            
                                                                   timedistributed_1[0][0]          
                                                                   repeatvector_11[0][0]            
____________________________________________________________________________________________________
activation_11 (Activation)       (None, 10, 150)       0           merge_15[0][0]                   
____________________________________________________________________________________________________
alpha6 (TimeDistributed)         (None, 10, 1)         151         activation_11[0][0]              
____________________________________________________________________________________________________
flatten_6 (Flatten)              (None, 10)            0           alpha6[0][0]                     
____________________________________________________________________________________________________
activation_12 (Activation)       (None, 10)            0           flatten_6[0][0]                  
____________________________________________________________________________________________________
reshape_6 (Reshape)              (None, 10, 1)         0           activation_12[0][0]              
____________________________________________________________________________________________________
merge_16 (Merge)                 (None, 10, 151)       0           timedistributed_1[0][0]          
                                                                   reshape_6[0][0]                  
____________________________________________________________________________________________________
r6 (Lambda)                      (None, 150)           0           merge_16[0][0]                   
____________________________________________________________________________________________________
Tan_Wr5 (Dense)                  (None, 150)           22650       merge_14[0][0]                   
____________________________________________________________________________________________________
merge_17 (Merge)                 (None, 150)           0           r6[0][0]                         
                                                                   Tan_Wr5[0][0]                    
____________________________________________________________________________________________________
lambda_7 (Lambda)                (None, 150)           0           timedistributed_2[0][0]          
____________________________________________________________________________________________________
Wr6 (Dense)                      (None, 150)           22650       merge_17[0][0]                   
____________________________________________________________________________________________________
repeatvector_12 (RepeatVector)   (None, 10, 150)       0           lambda_7[0][0]                   
____________________________________________________________________________________________________
repeatvector_13 (RepeatVector)   (None, 10, 150)       0           Wr6[0][0]                        
____________________________________________________________________________________________________
merge_18 (Merge)                 (None, 10, 150)       0           repeatvector_12[0][0]            
                                                                   timedistributed_1[0][0]          
                                                                   repeatvector_13[0][0]            
____________________________________________________________________________________________________
activation_13 (Activation)       (None, 10, 150)       0           merge_18[0][0]                   
____________________________________________________________________________________________________
alpha7 (TimeDistributed)         (None, 10, 1)         151         activation_13[0][0]              
____________________________________________________________________________________________________
flatten_7 (Flatten)              (None, 10)            0           alpha7[0][0]                     
____________________________________________________________________________________________________
activation_14 (Activation)       (None, 10)            0           flatten_7[0][0]                  
____________________________________________________________________________________________________
reshape_7 (Reshape)              (None, 10, 1)         0           activation_14[0][0]              
____________________________________________________________________________________________________
merge_19 (Merge)                 (None, 10, 151)       0           timedistributed_1[0][0]          
                                                                   reshape_7[0][0]                  
____________________________________________________________________________________________________
r7 (Lambda)                      (None, 150)           0           merge_19[0][0]                   
____________________________________________________________________________________________________
Tan_Wr6 (Dense)                  (None, 150)           22650       merge_17[0][0]                   
____________________________________________________________________________________________________
merge_20 (Merge)                 (None, 150)           0           r7[0][0]                         
                                                                   Tan_Wr6[0][0]                    
____________________________________________________________________________________________________
lambda_8 (Lambda)                (None, 150)           0           timedistributed_2[0][0]          
____________________________________________________________________________________________________
Wr7 (Dense)                      (None, 150)           22650       merge_20[0][0]                   
____________________________________________________________________________________________________
repeatvector_14 (RepeatVector)   (None, 10, 150)       0           lambda_8[0][0]                   
____________________________________________________________________________________________________
repeatvector_15 (RepeatVector)   (None, 10, 150)       0           Wr7[0][0]                        
____________________________________________________________________________________________________
merge_21 (Merge)                 (None, 10, 150)       0           repeatvector_14[0][0]            
                                                                   timedistributed_1[0][0]          
                                                                   repeatvector_15[0][0]            
____________________________________________________________________________________________________
activation_15 (Activation)       (None, 10, 150)       0           merge_21[0][0]                   
____________________________________________________________________________________________________
alpha8 (TimeDistributed)         (None, 10, 1)         151         activation_15[0][0]              
____________________________________________________________________________________________________
flatten_8 (Flatten)              (None, 10)            0           alpha8[0][0]                     
____________________________________________________________________________________________________
activation_16 (Activation)       (None, 10)            0           flatten_8[0][0]                  
____________________________________________________________________________________________________
reshape_8 (Reshape)              (None, 10, 1)         0           activation_16[0][0]              
____________________________________________________________________________________________________
merge_22 (Merge)                 (None, 10, 151)       0           timedistributed_1[0][0]          
                                                                   reshape_8[0][0]                  
____________________________________________________________________________________________________
r8 (Lambda)                      (None, 150)           0           merge_22[0][0]                   
____________________________________________________________________________________________________
Tan_Wr7 (Dense)                  (None, 150)           22650       merge_20[0][0]                   
____________________________________________________________________________________________________
merge_23 (Merge)                 (None, 150)           0           r8[0][0]                         
                                                                   Tan_Wr7[0][0]                    
____________________________________________________________________________________________________
lambda_9 (Lambda)                (None, 150)           0           timedistributed_2[0][0]          
____________________________________________________________________________________________________
Wr8 (Dense)                      (None, 150)           22650       merge_23[0][0]                   
____________________________________________________________________________________________________
repeatvector_16 (RepeatVector)   (None, 10, 150)       0           lambda_9[0][0]                   
____________________________________________________________________________________________________
repeatvector_17 (RepeatVector)   (None, 10, 150)       0           Wr8[0][0]                        
____________________________________________________________________________________________________
merge_24 (Merge)                 (None, 10, 150)       0           repeatvector_16[0][0]            
                                                                   timedistributed_1[0][0]          
                                                                   repeatvector_17[0][0]            
____________________________________________________________________________________________________
activation_17 (Activation)       (None, 10, 150)       0           merge_24[0][0]                   
____________________________________________________________________________________________________
alpha9 (TimeDistributed)         (None, 10, 1)         151         activation_17[0][0]              
____________________________________________________________________________________________________
flatten_9 (Flatten)              (None, 10)            0           alpha9[0][0]                     
____________________________________________________________________________________________________
activation_18 (Activation)       (None, 10)            0           flatten_9[0][0]                  
____________________________________________________________________________________________________
reshape_9 (Reshape)              (None, 10, 1)         0           activation_18[0][0]              
____________________________________________________________________________________________________
merge_25 (Merge)                 (None, 10, 151)       0           timedistributed_1[0][0]          
                                                                   reshape_9[0][0]                  
____________________________________________________________________________________________________
r9 (Lambda)                      (None, 150)           0           merge_25[0][0]                   
____________________________________________________________________________________________________
Tan_Wr8 (Dense)                  (None, 150)           22650       merge_23[0][0]                   
____________________________________________________________________________________________________
merge_26 (Merge)                 (None, 150)           0           r9[0][0]                         
                                                                   Tan_Wr8[0][0]                    
____________________________________________________________________________________________________
lambda_10 (Lambda)               (None, 150)           0           timedistributed_2[0][0]          
____________________________________________________________________________________________________
Wr9 (Dense)                      (None, 150)           22650       merge_26[0][0]                   
____________________________________________________________________________________________________
repeatvector_18 (RepeatVector)   (None, 10, 150)       0           lambda_10[0][0]                  
____________________________________________________________________________________________________
repeatvector_19 (RepeatVector)   (None, 10, 150)       0           Wr9[0][0]                        
____________________________________________________________________________________________________
merge_27 (Merge)                 (None, 10, 150)       0           repeatvector_18[0][0]            
                                                                   timedistributed_1[0][0]          
                                                                   repeatvector_19[0][0]            
____________________________________________________________________________________________________
activation_19 (Activation)       (None, 10, 150)       0           merge_27[0][0]                   
____________________________________________________________________________________________________
alpha10 (TimeDistributed)        (None, 10, 1)         151         activation_19[0][0]              
____________________________________________________________________________________________________
flatten_10 (Flatten)             (None, 10)            0           alpha10[0][0]                    
____________________________________________________________________________________________________
activation_20 (Activation)       (None, 10)            0           flatten_10[0][0]                 
____________________________________________________________________________________________________
reshape_10 (Reshape)             (None, 10, 1)         0           activation_20[0][0]              
____________________________________________________________________________________________________
merge_28 (Merge)                 (None, 10, 151)       0           timedistributed_1[0][0]          
                                                                   reshape_10[0][0]                 
____________________________________________________________________________________________________
r10 (Lambda)                     (None, 150)           0           merge_28[0][0]                   
____________________________________________________________________________________________________
Tan_Wr9 (Dense)                  (None, 150)           22650       merge_26[0][0]                   
____________________________________________________________________________________________________
merge_29 (Merge)                 (None, 150)           0           r10[0][0]                        
                                                                   Tan_Wr9[0][0]                    
____________________________________________________________________________________________________
lambda_11 (Lambda)               (None, 150)           0           timedistributed_2[0][0]          
____________________________________________________________________________________________________
Wr10 (Dense)                     (None, 150)           22650       merge_29[0][0]                   
____________________________________________________________________________________________________
repeatvector_20 (RepeatVector)   (None, 10, 150)       0           lambda_11[0][0]                  
____________________________________________________________________________________________________
repeatvector_21 (RepeatVector)   (None, 10, 150)       0           Wr10[0][0]                       
____________________________________________________________________________________________________
merge_30 (Merge)                 (None, 10, 150)       0           repeatvector_20[0][0]            
                                                                   timedistributed_1[0][0]          
                                                                   repeatvector_21[0][0]            
____________________________________________________________________________________________________
activation_21 (Activation)       (None, 10, 150)       0           merge_30[0][0]                   
____________________________________________________________________________________________________
alpha11 (TimeDistributed)        (None, 10, 1)         151         activation_21[0][0]              
____________________________________________________________________________________________________
flatten_11 (Flatten)             (None, 10)            0           alpha11[0][0]                    
____________________________________________________________________________________________________
activation_22 (Activation)       (None, 10)            0           flatten_11[0][0]                 
____________________________________________________________________________________________________
reshape_11 (Reshape)             (None, 10, 1)         0           activation_22[0][0]              
____________________________________________________________________________________________________
merge_31 (Merge)                 (None, 10, 151)       0           timedistributed_1[0][0]          
                                                                   reshape_11[0][0]                 
____________________________________________________________________________________________________
r11 (Lambda)                     (None, 150)           0           merge_31[0][0]                   
____________________________________________________________________________________________________
Tan_Wr10 (Dense)                 (None, 150)           22650       merge_29[0][0]                   
____________________________________________________________________________________________________
merge_32 (Merge)                 (None, 150)           0           r11[0][0]                        
                                                                   Tan_Wr10[0][0]                   
____________________________________________________________________________________________________
h_n (Lambda)                     (None, 150)           0           Dropout LSTM Layer[0][0]         
____________________________________________________________________________________________________
dense_14 (Dense)                 (None, 150)           22650       merge_32[0][0]                   
____________________________________________________________________________________________________
dense_15 (Dense)                 (None, 150)           22650       h_n[0][0]                        
____________________________________________________________________________________________________
merge_33 (Merge)                 (None, 150)           0           dense_14[0][0]                   
                                                                   dense_15[0][0]                   
____________________________________________________________________________________________________
activation_23 (Activation)       (None, 150)           0           merge_33[0][0]                   
____________________________________________________________________________________________________
Output Layer (Dense)             (None, 2)             302         activation_23[0][0]              
====================================================================================================
Total params: 743,563
Trainable params: 743,563
Non-trainable params: 0
____________________________________________________________________________________________________
Model Compiled
Training New Model
Train on 197866 samples, validate on 10823 samples
…
